model_wd2.pt (torch, 130505 bytes, 18 tensors)

cnn1.weight f4 [32, 3, 3, 3]
00000000: 672b da31 161c e5b1 dab5 a032 ea36 c832
00000010: e08c 86b2 df92 b232 eb7b 2733 6ea8 1b32
00000020: 28dd 3433 aef6 76b3 b286 03b3 cb7b 41b2
00000030: 8b8d 3ab3 153d 28b3 9392 27b2 2c67 6db3
00000040: eb69 65b3 60c9 38b2 7ecc e4b3 431b 95b3
00000050: a9b4 2db3 e1c5 1ab4 874c e6b3 7608 57b3
00000060: dde9 aeb4 449c 79b4 6138 fdb3 572a 123f
00000070: ff99 5d3f 3776 0bbe 753e 823d 2cc8 cb3e
00000080: 8b09 38be d293 21bf 1382 89be 4c61 05bf
00000090: 3ed9 a0be f1ba 35be 973b 86be 4e12 4bbe
000000a0: 97ec 1abe 1af4 e3bd c779 0e3e d1ee 803e
000000b0: e6a2 703e 814a 9dbe 4ce7 4fbe 5feb 543d
000000c0: 8edd 87bd 3114 22be 0933 9c3d e737 7a3e
000000d0: 5960 013e 2ace 183e 0b85 a23d 58c0 cf3e
000000e0: 9e2a 01bf 5534 b7be 033e 383f 55e7 a9bd
000000f0: 9c88 07be 1395 ffbd bfa8 403d 757d 17be
00000100: 3871 eb3e 8b5e 09bf 41de f5be 71da 523f
00000110: 516c 9e3c 746e 7fbe 34fd babd 8bc8 663e
00000120: ed28 693d a779 ba3e 48c8 e9be fd97 bcbe
00000130: e36a 1a3f c3f6 0ebe 83b1 5f3a 899f 07be
00000140: a51b 1e3e 8aea c73e 8fbb 0d3c a611 72be
00000150: 8358 2f3e 21e7 9ebe d31f 92be 351f babd
00000160: 9a0c b7be 796f 45be 1df8 833e 5a74 fe3d
00000170: 7a31 81bd 51f3 063e f5d0 7ebd 1a83 4f3b
00000180: b24a 98bd 29b6 b7bd 2bbc 8b3d 4b10 6c3d
00000190: 5383 9ebd 90a0 65be 2eb7 17be 1b7c 75be
000001a0: 583c 1bbe 457f a2be f7d2 58be 0638 42bc
000001b0: 915d 72b3 018d 5833 8c2f ae34 34d1 1535
000001c0: cd40 2e35 1bcb c235 97f7 0b37 6cc5 a936
000001d0: f3a0 c936 cc84 97b3 dda7 4632 7d5d 90b2
000001e0: 612a 5234 43c2 b334 3b34 4c35 dc19 a336
000001f0: d557 1f36 f3ea 4d36 ff77 5535 ad79 5e35
00000200: 4cd0 a235 938a 5b36 a51e 4036 72ac 6a36
00000210: d323 2537 258d 0537 03ad f836 2e8b b03a
00000220: 7e2a 443a 6566 8d3a f32c d83a 36f4 9f3a
00000230: 48bc 093b 2aef ab3a d5d9 483a 48bd b13a
00000240: 49b7 1d3b e8c3 f03a 49b4 e63a d32d 323b
00000250: 810d 263b 29ee 473b 4692 1f3b a531 1b3b
00000260: 2abd 353b 5403 a23b 2689 933b 7aa2 943b
00000270: 16b9 a33b e9df a93b 736e c63b d253 a03b
00000280: 6c31 b53b 0ff4 d73b 474f 92a3 bc69 a298
00000290: 403b 4a8b 6770 83a3 8bd5 8f96 104e c88b
000002a0: 368a 69a4 84cc 0b9c 51d5 2b11 257d 4426
000002b0: 746d 5320 9f55 3c1b 8d62 e626 39dd 8420
000002c0: 560a 3d1b 002f e726 5bfb 9922 6942 bf1d
000002d0: b77d 8529 86cf 0429 4904 1129 89a1 c429
000002e0: 72b1 8929 ab6a 6529 65cd 8e29 05e8 a729
000002f0: 48f0 cf28 6389 23bd be8a df3c b076 8dbc
00000300: 8207 ce3c bef2 d43d b29f ed3b 9c49 a3bb
00000310: 06d4 2cbd 2c44 00be acf1 efbd bad9 b73d
00000320: 66b4 513d 3031 743a e84c 3c3e 51d2 c43d
00000330: e6aa eabc 1163 af3c 6319 67bd b245 29be
00000340: 4edb 843e 07a3 443e cb7f 25bd 468e b53e
00000350: 04fa 893e 0d55 3ebc 5947 5c3e d937 013e
00000360: c0de 95be 9bc5 86be fbce d1bc 3c5b 4bbe
00000370: 1a2c 47be 9d85 5e3e 39fd 83be 94d4 c7be
00000380: 7518 9d3a 0166 d7ba 74ba 15bc 2753 c83d
00000390: e1de 833d 44f7 373d c966 ab3e 39d5 44bc
000003a0: 5678 2ebe 7cfe b23d 347a 96bd af57 8ebc
000003b0: 3492 dc3d 8bb7 9d3c 1530 493d 08b5 a23e
000003c0: 256d 52bc e0a0 f7bd 2e37 f23d 82a8 ae3e
000003d0: ea75 bd3e b65b 523e 3b26 85be d66a da3d
000003e0: ce44 8a3e d9b0 a8be 1a07 47bd 004b 973e
000003f0: 2f6b 7b3e a0aa 833e f06f 313e a3c9 eebe
6.3495693e-09 -6.66797e-09 1.8709148e-08 2.3308036e-08 -1.5663716e-08 2.0788717e-08 3.899542e-08 9.060484e-09
4.2110656e-08 -5.7500692e-08 -3.062332e-08 -1.1262226e-08 -4.3435232e-08 -3.9171102e-08 -9.7540065e-09 -5.5274697e-08
-5.341455e-08 -1.0755997e-08 -1.0654274e-07 -6.943312e-08 -4.044401e-08 -1.4414356e-07 -1.072413e-07 -5.0066284e-08
-3.2580184e-07 -2.3246781e-07 -1.1791486e-07 0.57095855 0.86563104 -0.13619314 0.06359569 0.39801157
-0.1797239 -0.6311618 -0.2685705 -0.5210159 -0.31415743 -0.17747094 -0.26217338 -0.19831201
-0.15129314 -0.11130543 0.13913642 0.25182202 0.23499641 -0.30720904 -0.20303077 0.05198228
-0.06634055 -0.15828015 0.07626922 0.24435388 0.1263441 0.14922395 0.07935532 0.40576434
-0.50455654 -0.35782114 0.7196962 -0.08296076 -0.13235706 -0.124796055 0.04703593 -0.14793952
0.45984817 -0.53659886 -0.4802113 0.82364565 0.019338759 -0.24944478 -0.09130326 0.22537439
0.056923795 0.36420938 -0.45660615 -0.36834708 0.60319346 -0.1396132 0.0008533226 -0.13244452
0.15440233 0.39046127 0.0086506745 -0.23639545 0.17123608 -0.31035712 -0.28539905 -0.090879835
-0.35751802 -0.19280805 0.25775233 0.12424536 -0.06308265 0.13178755 -0.062210996 0.0031663836
-0.07436122 -0.08970291 0.068229996 0.057632726 -0.07739892 -0.22424531 -0.14815971 -0.23973124
-0.15159738 -0.31737724 -0.21174227 -0.011854177 -5.6430114e-08 5.041966e-08 3.244462e-07 5.5811256e-07
6.491435e-07 1.4513238e-06 8.342692e-06 5.0595754e-06 6.0090038e-06 -7.055641e-08 1.15632846e-08 -1.680632e-08
1.9573191e-07 3.3482692e-07 7.607193e-07 4.860789e-06 2.3743971e-06 3.068414e-06 7.95233e-07 8.2878506e-07
1.2130563e-06 3.2714204e-06 2.8628067e-06 3.4969094e-06 9.843107e-06 7.9602805e-06 7.411117e-06 0.0013469213
0.00074831385 0.0010787962 0.0016492888 0.0012203518 0.0021016765 0.0013117541 0.0007661854 0.0013560439
0.0024065545 0.0018368931 0.0017601337 0.0027187958 0.0025337639 0.0030506945 0.002434866 0.0023680713
0.0027731159 0.0049442444 0.0045024334 0.0045359703 0.004996429 0.005184163 0.006055647 0.0048928047
0.005529573 0.0065903733 -1.5862927e-17 -4.1982783e-24 -3.894836e-32 -1.4250653e-17 -2.323766e-25 -7.7154653e-32
-5.064089e-17 -4.625557e-22 1.3555255e-28 6.8170763e-16 1.790861e-19 1.5578661e-22 1.5986168e-15 2.2508063e-19
1.5637053e-22 1.6041584e-15 4.1736866e-18 5.0625946e-21 5.9281945e-14 2.9489886e-14 3.2200184e-14 8.7321704e-14
6.114804e-14 5.0940734e-14 6.341697e-14 7.456539e-14 2.3085822e-14 -0.039925944 0.027287837 -0.017268509
0.025150064 0.10397862 0.007251703 -0.00498314 -0.04219439 -0.12526006 -0.11716017 0.08977075
0.051197432 0.0009315191 0.18388712 0.09610427 -0.028645944 0.021409543 -0.056420695 -0.16530493
0.25948566 0.19202815 -0.040405076 0.3546011 0.2694856 -0.011616957 0.21511592 0.1261896
-0.29271507 -0.26322636 -0.025611391 -0.19859022 -0.19450417 0.21730657 -0.2577913 -0.39029372
0.0011985438 -0.0016433598 -0.009138692 0.09781485 0.06438995 0.044913545 0.33476856 -0.012013727
-0.17038092 0.08739945 -0.07347527 -0.017375795 0.107700735 0.01925256 0.04911812 0.3177874
-0.012843405 -0.12091231 0.11826931 0.34112936 0.37004024 0.20542797 -0.2600573 0.106649086
0.2700562 -0.32947424 -0.048590757 0.29549408 0.24552606 0.25716114 0.17327857 -0.46638212

cnn1.bias f4 [32]
00000000: 0c58 a00f fb2a 51b8 d008 0ab8 5197 d1b7
00000010: 709b 8704 d8a2 913a 1e31 0000 027e 87b7
00000020: 7ac1 aeb5 392a 69b9 1373 c338 6a0e 0080
00000030: b10d 0000 f9fa c038 9bfd 9638 0f11 1538
00000040: 64dc 3437 75bb 8037 7a4d 8336 6a8a c5b7
00000050: 7bd8 24b9 3955 6db7 fceb 4eb8 6c3c 57b8
00000060: b039 25b8 1acf c8ac 2f0f 0080 9acc 1a19
00000070: d966 2eb7 0cd0 d536 e891 9d38 7528 01b7
1.5811133e-29 -4.986951e-05 -3.290997e-05 -2.4985204e-05 3.1881094e-36 0.0011111153 1.762e-41 -1.6151931e-05
-1.3020319e-06 -0.00022236341 9.319759e-05 -5.171e-42 4.912e-42 9.202021e-05 7.199795e-05 3.5540255e-05
1.078015e-05 1.534608e-05 3.9131237e-06 -2.3548684e-05 -0.00015720904 -1.4146143e-05 -4.9334005e-05 -5.1316267e-05
-3.939279e-05 -5.7073348e-12 -5.447e-42 8.002932e-24 -1.0395154e-05 6.3721145e-06 7.5135205e-05 -7.698419e-06

conv1_bn.weight f4 [32]
00000000: c007 a63a 6409 083f 0f2d 043f 7e25 263f
00000010: cb19 e73b 3d95 9f3c 972e 713a 0d8f ff3e
00000020: b998 d13e 15b1 233f c7ff cc3e 0008 c636
00000030: c49b 8f2d 30f2 d43e ea53 013f 0d4c d13e
00000040: d926 093f 33f2 e83e 545a ea3e 380f 0e3f
00000050: 56f2 ad3e f1cf 2b3f 1deb 0b3f 829a a53e
00000060: 5d61 043f 085e 363d d089 1d38 c5ab 45ba
00000070: d595 113f 54c4 063e cae8 d53e 7cf4 983e
0.0012667105 0.5313933 0.51631254 0.6490096 0.0070526353 0.019480342 0.0009200363 0.49913827
0.4093683 0.6394208 0.40038893 5.901791e-06 1.6326392e-11 0.41591024 0.5051867 0.40878335
0.535749 0.45497283 0.4577204 0.5549197 0.3397395 0.6711417 0.5465563 0.32344443
0.51711065 0.04452327 3.7560065e-05 -0.0007540549 0.5686925 0.1316083 0.41779166 0.29874027

conv1_bn.bias f4 [32]
00000000: 83c1 3aba fdf6 1fbf 1efe fdbd 2a7c 38bf
00000010: 1700 18bc 85f4 74bd 36e0 05b9 2f96 dbbe
00000020: 7d66 f3be aa79 62bf 33ec 48bf 9b78 87b3
00000030: 858c b3a4 59ce 123d c0f9 46bc 0378 db3d
00000040: b7f9 22bf df08 57bd 775c 11be 1ee8 39bd
00000050: fc5a 82be 7e18 d8bd 09b5 43bd 1c80 e33d
00000060: b322 d0bd b231 8cbe 673a 0db6 d3e7 02bb
00000070: d4dd 5bbf 17d0 723d 12f2 acbe f525 63bd
-0.00071241724 -0.6248625 -0.12401985 -0.7206446 -0.009277365 -0.059803504 -0.00012767393 -0.42888018
-0.4753913 -0.88466895 -0.7848541 -6.3083654e-08 -7.7866925e-17 0.03584132 -0.012144506 0.1071625
-0.63662285 -0.052498695 -0.14195429 -0.04538738 -0.2546004 -0.105515465 -0.04778007 0.11108419
-0.10162868 -0.27381665 -2.1044632e-06 -0.0019974604 -0.8588536 0.05928048 -0.33778435 -0.05545612

conv1_bn.running_mean f4 [32]
00000000: 560b e1b1 40b9 09bb e77b 0d3c 839e 38bc
00000010: 1230 8d34 9698 bd3a 9b12 4d27 bffd 2a3c
00000020: f782 783a 88bd 83bb ca82 0d3b 03b8 53a3
00000030: fb42 e319 550a 5c3c df40 e9ba 94e8 ec3a
00000040: b464 c23b b658 3639 9a93 a0ba e554 1d3c
00000050: d248 453c 6f02 a1bb be86 e8ba 043a 0ebc
00000060: 5a3c b5ba 62d6 beba 4e81 5209 7751 96b5
00000070: 63f1 06bc d7a0 963b 71cb 883b cbec 87bb
-6.5496506e-09 -0.0021014959 0.008635498 -0.011268261 2.6298272e-07 0.001446503 2.845955e-15 0.010436474
0.00094799645 -0.0040203966 0.002159285 -1.1477299e-17 2.3498303e-23 0.013430198 -0.0017795822 0.0018074685
0.005932415 0.0001738992 -0.001225102 0.00960276 0.0120412875 -0.00491362 -0.0017740352 -0.008680824
-0.001382719 -0.0014559741 2.533863e-33 -1.119958e-06 -0.008236262 0.0045968103 0.0041746427 -0.004148101

conv1_bn.running_var f4 [32]
00000000: 18e8 d92b c727 c33e 23ed 483f 9db9 4f40
00000010: 94ae 8331 5d51 9e3b ca82 6f16 88a1 e43f
00000020: 7083 663f 15a4 c43f 51e3 853f 031c b00e
00000030: 8711 0000 a7b0 823f 5889 203f 60c7 ba3f
00000040: 9c71 873f a3cc 0540 5edb 143f 7cdc fa3f
00000050: 1254 5e3f ce38 943f 6868 c93e 3f74 663f
00000060: eabb 1340 e308 4c3e 0400 0000 3443 d833
00000070: c007 333f e545 ea3f e5c7 9c3e 45a5 b93f
1.5483196e-12 0.38116285 0.7848684 3.245704 3.832449e-09 0.0048314766 1.9347536e-25 1.7861795
0.9004431 1.5362574 1.0459996 4.3414324e-30 6.288e-42 1.021016 0.6270957 1.4592094
1.0581546 2.090615 0.5814723 1.9598536 0.8684703 1.1579835 0.39337468 0.9002113
2.3083444 0.19925265 6e-45 1.0070508e-07 0.699337 1.830258 0.30621257 1.4503561

cnn2.weight f4 [32, 32, 3, 3]
00000000: 4d55 2b97 693a 7497 ede3 3019 7bb5 d498
00000010: af9e 279c e734 1b1c 9f5b 209c 9822 2d1c
00000020: a1a5 0b9e 5578 85be 969d 8cbe 6661 60be
00000030: ab08 7f3e 3fca b73b e0fa 7fbb fecb c73e
00000040: cbf7 17be 6a43 bfbe a156 bb3d de4c ca3d
00000050: df08 ba3d 6a95 0abe 7b42 d93d 8385 0b3e
00000060: 4cb4 f23c b24f 0bbe e784 353e 2096 3dbb
00000070: 5edf 9abc a515 dd3d 5854 71bd bced f6bd
00000080: 67ef 22be b5db 3e3e 3dc7 abbd ed99 3fbd
00000090: d4c0 9fa8 19a2 22a9 7ba7 2ca3 3b79 20a8
000000a0: c269 a1ab 70f6 10ab 291c 12a2 e2f8 81a8
000000b0: a312 83ad 5bcb 45b0 430e b133 74de 3a35
000000c0: 9836 8333 c879 0034 2746 6cb5 23e8 99b5
000000d0: 15af 8cb5 ff33 25b4 815d 5087 3676 5f90
000000e0: 75cf 400e 1e3d 0908 6d95 a114 c5c1 9196
000000f0: 98b5 1e85 32e9 9614 0794 ae97 a7ca 4bbe
00000100: 1095 063d da06 253e 5822 4fbe a0ad 343d
00000110: 8205 763e 5363 19be 7a65 0c3c 88c8 5c3e
00000120: 7861 0abd 2487 5a3d 3bc2 703c 3f9f 043b
00000130: bba8 0dbd 586f c6bd 6024 3dbb 15ce cf3b
00000140: 54f5 31be c298 cfbd 0cfe 71bc edab 88be
00000150: 04f3 b7bd 3cbb e63c 43e0 f8bc fceb f93c
00000160: d2c4 78be 4d18 97bd bbe5 c9ba d311 49bd
00000170: 309e 0cbc 9396 1abd ffdb 333c 1a1e 303c
00000180: 8601 82bd 5eaf 7fbd 8c0e c83a 5f12 0080
00000190: 8642 da89 2093 5885 62e4 5680 5b25 5513
000001a0: e500 2f0d 980c 0080 cd15 a28c c2bf 138d
000001b0: b90d 0080 c50d 0000 d90d 0000 ce0d 0000
000001c0: 3706 0080 b30d 0000 c50d 0000 d300 0000
000001d0: ba0d 0080 bb56 3a3e 264e ddbd 7faa 5dbd
000001e0: dd2b 033e f1ef 09be 9de7 7e3d 65fa 233e
000001f0: 7a54 ddbd d33b d4bd ff3e 0b3e e47e 5ebe
00000200: f5b6 32be eb48 ad3d 44af 603e e2f9 223d
00000210: c9ea e23d 6d5a 5f3d 94d8 1fbc 0e0c 8fbd
00000220: d217 d2bd f732 4a3e 4311 2abe 0e5f aebd
00000230: 510b 903e aca1 4cbe af9f 0cbe 4a6f b23e
00000240: 58ea 36be 18a9 44be 7db6 46bd c0e9 0cbe
00000250: c4b8 66be f302 303e ca1a 81bd f586 9bbc
00000260: f680 3fbe f22b ba3c 992c 033e ee99 b4bd
00000270: cb54 b7bc a6c2 2d3e cbc5 a13e 1a39 9a3c
00000280: d91a 023e ccbf b83e 0e9f 11be ad94 eabe
00000290: b879 21be a88e ab3e 2a96 05bc d5b9 eabc
000002a0: 74a4 063f b615 993e 4f26 f13d 57ae 2c3c
000002b0: fc5a 8cbd 5f42 453e 11f4 363b bac5 06bd
000002c0: 65be e13d 3a34 f2bd 8f76 cfbd b773 a73d
000002d0: bfd5 66be c416 8abe f3a7 38be 8bc6 febd
000002e0: 22d4 19be bf36 dcbd 5e4a ebbd 5baa 4ebe
000002f0: cafd 44be 03db 6fbe d7cb b8be 8b92 203d
00000300: b3c0 ddbb c893 52bc a548 58be 0cec 03bd
00000310: abc8 4cbd 8f20 c0bd 9864 e4bd c18e cf3d
00000320: e262 84bd 8468 46be 98e3 9d3c c54f 8cbd
00000330: dcd3 6ebd f56b 3fbd 52c7 14be 7fff 9a3e
00000340: aea5 71bd d3bd aabe 5cc9 993e d143 1abe
00000350: 2c67 d3be 2d6c d53e 836f 88bd 8ffc c3be
00000360: 4082 99be cd3e 57bd 3389 ee3d 95a6 d2be
00000370: d876 15be f549 e73d 1660 73be d24f d1be
00000380: 3925 f6bc e5a7 9fba 464a 7fb4 3243 d0b7
00000390: ffd2 9fb8 a80a 1e3a 0053 40b9 dcce 04b9
000003a0: 43f4 3cba 3010 08bb bc0d 0080 0a89 0080
000003b0: 2d91 6904 ac0d 0000 95a1 4b82 8aeb bb09
000003c0: b40d 0000 e237 3000 e661 b50a 2b37 0a2b
000003d0: 436f 37ac 47ce 07ac a0a0 ebac c633 0ead
000003e0: d9fc 292d 21c0 aead 8dac 1ba9 d801 222d
000003f0: de60 c83c 9140 8abd d034 613c caa9 8dbc
-5.5360745e-25 -7.8914376e-25 9.145016e-24 -5.4983964e-24 -5.546076e-22 5.1353573e-22 -5.3057977e-22 5.728561e-22
-7.39285e-21 -0.2606837 -0.2746398 -0.21912155 0.2490565 0.0056088264 -0.0039059445 0.3902282
-0.1484062 -0.3735612 0.091473825 0.098779425 0.09083723 -0.1353356 0.10608383 0.1362515
0.029626988 -0.1360462 0.1772648 -0.0028928593 -0.018905338 0.10795144 -0.058918327 -0.12057063
-0.15911637 0.18638499 -0.08387611 -0.046777654 -1.7736172e-14 -3.6111823e-14 -9.359604e-18 -8.908072e-15
-1.1469092e-12 -5.150108e-13 -1.9801598e-18 -1.4429813e-14 -1.4901252e-11 -7.195717e-10 8.244799e-08 6.961411e-07
6.1100934e-08 1.1965233e-07 -8.8018936e-07 -1.1466949e-06 -1.0481768e-06 -1.5385739e-07 -1.5675659e-34 -4.4070062e-29
2.3765714e-30 4.129878e-34 1.6315784e-26 -2.35483e-25 -7.462478e-36 1.5238109e-26 -1.1281854e-24 -0.19901524
0.032857 0.16115895 -0.20227945 0.044110894 0.24025539 -0.14979295 0.008569116 0.21560872
-0.03378436 0.053351536 0.014694746 0.002023652 -0.034584742 -0.09689206 -0.0028860793 0.0063417056
-0.17378742 -0.10136558 -0.014770042 -0.2669367 -0.089818984 0.028165452 -0.030380374 0.030508034
-0.24293831 -0.07377682 -0.0015403548 -0.049089264 -0.008582637 -0.037741255 0.010977744 0.010749364
-0.06347947 -0.062423103 0.0015263124 -6.59e-42 -5.254415e-33 -1.0183294e-35 -7.979781e-39 2.6902797e-27
5.3927115e-31 -4.518e-42 -2.4973173e-31 -4.5528692e-31 -4.923e-42 4.94e-42 4.968e-42 4.952e-42
-2.23e-42 4.914e-42 4.94e-42 2.96e-43 -4.924e-42 0.18197148 -0.10805921 -0.054117676
0.12809701 -0.13470437 0.062232602 0.16013487 -0.10807128 -0.10362973 0.1359825 -0.21728092
-0.17452605 0.084611736 0.21941859 0.039789088 0.11079938 0.054529596 -0.009756226 -0.06984721
-0.102584496 0.19746004 -0.16608147 -0.08514224 0.28133634 -0.19983548 -0.1373279 0.34850532
-0.17862833 -0.19205129 -0.048513878 -0.13761044 -0.2253142 0.17188625 -0.06303938 -0.018985251
-0.18701538 0.022726033 0.12809981 -0.08818422 -0.0223793 0.16968784 0.31596217 0.018826056
0.12705554 0.3608383 -0.14220831 -0.45816556 -0.15769088 0.33507276 -0.008153478 -0.028653065
0.52594686 0.29899377 0.11774885 0.010539613 -0.068532914 0.192636 0.002791647 -0.03290341
0.11022643 -0.11826368 -0.10130035 0.08176368 -0.22542475 -0.26970494 -0.18032818 -0.12440213
-0.15022328 -0.107526295 -0.11488794 -0.20182173 -0.19237438 -0.2342339 -0.36093017 0.039202254
-0.0067673563 -0.012852617 -0.21121462 -0.032207534 -0.04999606 -0.0938121 -0.11151999 0.1013465
-0.06464173 -0.19375807 0.019273564 -0.06851152 -0.058307514 -0.046733815 -0.1452916 0.30273053
-0.058995895 -0.3334795 0.30036438 -0.15064932 -0.4128965 0.41684094 -0.06661894 -0.38278624
-0.29982185 -0.052550126 0.116472624 -0.41142717 -0.14596117 0.11293403 -0.23767123 -0.4088121
-0.030047046 -0.0012180774 -2.3775746e-07 -2.4826822e-05 -7.621012e-05 0.00060288096 -0.00018341467 -0.00012665562
-0.00072080287 -0.0020761602 -4.927e-42 -4.916e-41 2.745568e-36 4.905e-42 -1.4960456e-37 4.5240112e-33
4.916e-42 4.428151e-39 1.7466491e-32 4.910401e-13 -2.6067627e-12 -1.929916e-12 -6.6969347e-12 -8.0832615e-12
9.662681e-12 -1.9866832e-11 -3.4566578e-14 9.209043e-12 0.024460252 -0.06750596 0.013745502 -0.017292876

cnn2.bias f4 [32]
00000000: a95c 2c3a dd57 9cb9 59e9 0839 5320 54b9
00000010: 7a1f 7ab8 4b1a 2738 eab7 a8b9 5cf7 edb9
00000020: e954 c138 9ae4 5339 0981 4c38 6c2f 5238
00000030: d3b9 7439 8e6a aa39 dcf7 a4b9 7410 f638
00000040: 380d 45b9 2e8e 29b6 4b05 4239 e379 c8b8
00000050: 3ff4 86b8 8881 67b9 2efb f3b8 6f37 8936
00000060: b0c4 9b39 a06b 4d37 c2fb a439 10a9 7639
00000070: 6330 38b8 07ef 9a39 9d88 be38 3fe3 b3b8
0.0006575087 -0.00029820102 0.000130569 -0.00020229937 -5.963396e-05 3.984039e-05 -0.00032180484 -0.0004538846
9.218773e-05 0.00020207689 4.8757563e-05 5.0112067e-05 0.00023338878 0.00032504316 -0.00031465187 0.00011733259
-0.00018792308 -2.5265722e-06 0.00018503254 -9.559446e-05 -6.435112e-05 -0.00022078131 -0.00011633929 4.0893715e-06
0.00029710447 1.2244011e-05 0.00031468092 0.00023523369 -4.3914082e-05 0.00029551258 9.085352e-05 -8.577713e-05

conv2_bn.weight f4 [32]
00000000: 6f09 013f 447e 463f 9048 0d3f 7a09 c93e
00000010: fd5c 123f 5ca8 c13e 61ed d03e 4b56 023f
00000020: 2dc9 163f 3492 de3e f428 0a3f 0014 c73e
00000030: 8d48 b93e 713c ed3e 3530 ae3e c947 343f
00000040: e409 aa3e c321 f43e eddc 2c3f 58c9 eb3e
00000050: 874b db3e aa1a ea3e 2925 083f 57da c23e
00000060: f483 e13e 6356 633f 08b6 0c3f 44c3 973e
00000070: 15f1 d33e f86d d03e 7e01 cb3e 8a80 aa3e
0.5040502 0.77536416 0.55188847 0.39265043 0.5717314 0.3782376 0.40806106 0.5091292
0.5890072 0.4347092 0.5396874 0.38882446 0.36188164 0.46335176 0.34021154 0.70422035
0.3321067 0.47682008 0.67524606 0.4605205 0.4283106 0.45723468 0.531817 0.38057205
0.44045985 0.8880369 0.5496526 0.29641163 0.41394868 0.407089 0.39649576 0.33301193

conv2_bn.bias f4 [32]
00000000: c58b d0be f811 1bbf 3eb9 ffbe 727e f7bd
00000010: 6059 18bf cf5e 20bf ddc4 afbe 5b3b f8be
00000020: 628e 12bf 4535 cabe 893b 02bf e1ee 74be
00000030: 6c82 b1be 730b 14bf b2a4 74bd 3737 37bf
00000040: 6aa3 37be a4cb c4be d312 17bf a175 cabe
00000050: c884 47be 2b9e d7be fd66 f5be 0a99 8ebe
00000060: c2c6 d0be 04ce 63bf 942d 0bbf bab2 89bd
00000070: 0744 bdbe fdde 9fbe 7d64 d0be 2403 77be
-0.40731636 -0.60574293 -0.49946016 -0.120846644 -0.59511375 -0.62644666 -0.34329882 -0.48482785
-0.5724851 -0.39493766 -0.50872093 -0.2391925 -0.34669816 -0.5782997 -0.05972738 -0.71568626
-0.17933431 -0.38436615 -0.590131 -0.3954287 -0.19484246 -0.4211286 -0.47930136 -0.27851135
-0.4077664 -0.8898623 -0.5436642 -0.067235425 -0.36965963 -0.31224814 -0.40701666 -0.24122292

conv2_bn.running_mean f4 [32]
00000000: 0d46 3fbf e2d4 8fbf e390 82bf 34b7 8abf
00000010: abdc f8be 9131 f03e 65ba 42bf 75d3 28bf
00000020: 2c49 74bf 991e 57bf f90f abbf 34da 01bf
00000030: 523b 67bf dfed 2ebe 51de bdbf b628 c1bf
00000040: cbfd dabd d4a1 07bf 8858 a6bf 690d 41bf
00000050: 1512 67bf b08e 78bf 2ed4 e4bf 581b afbe
00000060: d68d 38bf 32b2 25c0 fcfd ddbf 916b 38bf
00000070: d266 37bf e357 f6be 2af5 e03e c047 14bf
-0.74716264 -1.1236842 -1.0200466 -1.0837159 -0.48605856 0.46912816 -0.76065665 -0.6594766
-0.9542415 -0.84031063 -1.336425 -0.50723577 -0.9032489 -0.17082928 -1.483347 -1.5090549
-0.106929384 -0.52981305 -1.2995768 -0.7541109 -0.90261966 -0.97092724 -1.7877252 -0.3420055
-0.72091424 -2.5890012 -1.7343135 -0.72039133 -0.71641266 -0.48113927 0.43937045 -0.5792198

conv2_bn.running_var f4 [32]
00000000: d5e3 793f 6ede da3f fcc1 643f 38e0 a43f
00000010: e314 6b3f 6e41 533f 8488 493f b9c6 a53f
00000020: c1d5 a83f b664 803f 6f8a b13f 59cc 443f
00000030: 2422 273f a698 ec3e 9017 a83f 76b7 c53f
00000040: b10d 5e3f 4873 733f e7df a03f b08e 6a3f
00000050: 8204 923f 32d1 8e3f 8ed4 c43f 1cb3 5e3f
00000060: 99b5 873f 1146 3240 4651 9c3f 03be 823f
00000070: 229c 813f fc01 8e3f 28af 573f 8548 3a3f
0.9761327 1.709913 0.89358497 1.2880926 0.91828746 0.8252171 0.7872393 1.295127
1.3190233 1.0030735 1.3870372 0.7687431 0.6528647 0.46210212 1.3132191 1.5446613
0.8673964 0.9509778 1.256833 0.91623974 1.1407626 1.1157591 1.5377367 0.8699205
1.0602294 2.7855265 1.2212303 1.0214237 1.0125773 1.1094356 0.8425164 0.72766906

fc1.weight f4 [10, 2048]
00000000: 09cb d83d 5079 21bc 3a42 92bd 5b6f 0cbe
00000010: f55e 81be 31fc e7bd 69a5 72bd b3d6 a43d
00000020: cc6f 113e 779a 293d 3da9 013d 0910 3c3d
00000030: f343 523d 6ff1 d5bd 40de 0cbe 41ed 19be
00000040: 4e50 0d3e a1d0 2d3e 287c 443e 31ff 1b3e
00000050: 7ee9 01bd 8cb4 c0bb 46b4 2cbe 2d88 e8bc
00000060: ab68 183e c6c8 2a3e 8bc3 0a3d 044c 483e
00000070: d2d0 24be d9be 5f3d d3a9 1abe c2ce 3f3d
00000080: 37ff de3d 0274 c33d d961 b13d dcef 1c3e
00000090: 0c0f a0bd 260a 623e 9f90 ad3d 0028 1f3e
000000a0: ace1 4fbd 338f 27bd 5f14 acbd 1ef6 7dbd
000000b0: 7a03 fe3d 4ffe 5bbc 9dc2 d0bd 3970 ba3c
000000c0: 4634 eb3d 5eee 35bd 1f45 40be ae2f c7bd
000000d0: 475b e0bd 8f3a 633d b502 2b3d 9c49 67bc
000000e0: 2556 423d 0690 f9bc 0859 40bd 8954 8ebc
000000f0: 89ab 2cbe 82f9 12be 5542 633e cbad e63d
00000100: 6308 a73d b168 ac3d 369d a6bd 3f0b 733e
00000110: b831 773d 8003 e4bd dd70 babd 1a7a f9bd
00000120: 2eb8 a4bc 51c5 b1bc 97fd 07bd 6977 7d3d
00000130: 259f 093e 8d0d 063e 24ab 0cbd 566a 553d
00000140: f61a 353d 0214 ac3d 9282 eebc 385e 703d
00000150: 89ec 1b3d 480e dbba e14f 233e 6af0 63bb
00000160: ca9e 333d 01c3 403e 81f2 713e 9481 8c3d
00000170: 87b0 bcbd 93a8 a3bd 3ca1 01be c102 883d
00000180: f32e ebbd c590 733c 9cfb f63d de63 cabd
00000190: 0b5e 88bd 95f1 d4bd df4b 24be e379 3a3d
000001a0: 72dd 293e 687f a9bc 8af8 bdbd 677b 1dbe
000001b0: dc75 08be 21b5 893d f835 8e3d 06fd 313d
000001c0: 3f07 cabd 0c4d bdbd b9bc 34bb c159 a1bb
000001d0: 01d1 6f3d 8abb 503c 215d a5bd 1cec 53bd
000001e0: 23a9 8e3d 97a3 923d cafb 313d 1ed1 bf3d
000001f0: 6688 8e3d a3e3 a7bc d1d3 833d df5e 16be
00000200: a965 723d 01d0 8abe 8e77 71bd fac1 8abe
00000210: 1023 62be b53f 45be d8e3 c4bd 2f32 acbd
00000220: 4600 18bd 5eab 89be ff78 f5bd 1472 c0bc
00000230: c5da 62be 8479 a2bd 558c 0b3d 8445 803d
00000240: 3276 c9bd 9a31 6bbe c940 90be 532d 98bd
00000250: 8455 57be 93d1 143e 1180 a5bc b385 14bd
00000260: 7965 a6bd fa47 60be 9578 28be 8840 78be
00000270: a1f2 0cbe 094d 9bbc c4bf ab3c bc61 e5bc
00000280: 30a3 06bd 553e c2bd c31a 56bc 7692 50be
00000290: f664 10be 984b 453d 97d4 ffbc c684 873d
000002a0: 9c91 683d eb40 44be 1776 27be cf87 f43c
000002b0: cd75 a8be 02b0 79be 1cfd 7dbe dcba 5abd
000002c0: 7abc 3fbd 573d 91be da9f dcbd a106 823d
000002d0: 77cf dcbd 434e d0bd 656c 9cbd c34a 8dbd
000002e0: 4ddd 7b3d 4df6 0dbe 5057 01bc 3e2a cdbd
000002f0: dced 94bc 3fca c8bc f23e 2bbd ece2 d0bd
00000300: 526a 43bd b293 2b3e d966 fbbb 30a9 e23d
00000310: 4e74 213e e4ae 4c3e 2503 8f3d 62ea 88bc
00000320: f692 02bd b7d1 cbbd 24bb ab3d 53ca 263e
00000330: bac4 133c 148a 9f3d c475 9b3d d15c 19bd
00000340: bee4 b8bd 9ae4 bebd 9513 10bd 7eeb a43d
00000350: cc63 2abe d129 0cbe a7bd 2ebe a659 14bd
00000360: 8712 3abe 5685 71be f37b 16bd ad8a 4c3d
00000370: dba8 89be 7d55 873d cb35 28bd 1d6e debd
00000380: ca3f 81be f87f b7bd 9a9d 22bd 9667 4cbe
00000390: 7b94 31be d8f5 95bd a6e3 2abd 4601 afbd
000003a0: 335b 8a3d b6bd 91bd f4d9 bebe 20e4 d7bd
000003b0: 1717 133b 1165 523d d9a8 48be f958 683d
000003c0: 54fa bd3d 9517 113d 4e98 f43d 6d99 dc3d
000003d0: 9e27 5cbc a957 a43d a6f2 ba3d f5cd 02bc
000003e0: 12c3 c1bc 8147 db3d 21a2 233e 39b9 853e
000003f0: 991b c93b 432b 8b3d ec94 d63d f750 86bd
0.10585601 -0.009855583 -0.07141538 -0.13714354 -0.2526776 -0.113273986 -0.05923978 0.08048763
0.14202803 0.041407075 0.03165554 0.04591373 0.051334333 -0.104464404 -0.13756657 -0.15031911
0.13800165 0.16974117 0.19187987 0.15234067 -0.031716816 -0.005880898 -0.16865644 -0.028385246
0.14883678 0.16678151 0.03387789 0.19560248 -0.16095284 0.054625366 -0.15103845 0.04682804
0.10888522 0.09543611 0.08661241 0.15325874 -0.0781537 0.22074184 0.0847485 0.15542603
-0.050752327 -0.04090805 -0.08402323 -0.062002294 0.12403007 -0.013427331 -0.101933695 0.02275859
0.1148458 -0.044416778 -0.18776368 -0.09725891 -0.1095491 0.055475768 0.04175063 -0.014116671
0.047445435 -0.030464184 -0.046959907 -0.017374294 -0.1686231 -0.14352992 0.22193272 0.11263617
0.081558965 0.08418406 -0.08135454 0.23734759 0.06035015 -0.1113348 -0.09103558 -0.12181492
-0.020107355 -0.021700533 -0.033200826 0.061881457 0.13439615 0.13091107 -0.0343429 0.052103363
0.044215165 0.08402254 -0.029114995 0.058683604 0.038067374 -0.001671263 0.1594844 -0.003478075
0.043852605 0.18824388 0.23627664 0.068606526 -0.092133574 -0.07991137 -0.12659162 0.0664115
-0.11483564 0.014866059 0.120597094 -0.098823294 -0.06658562 -0.103976406 -0.16044568 0.045526396
0.16588381 -0.020690635 -0.09275921 -0.15379106 -0.1332621 0.06724001 0.069438875 0.043454193
-0.09864663 -0.09243211 -0.0027578308 -0.0049240296 0.05854893 0.012740025 -0.080744036 -0.051738843
0.06965854 0.071601085 0.043453015 0.09366058 0.0695961 -0.020494288 0.06436885 -0.14684628
0.059178982 -0.2711182 -0.058951907 -0.27101117 -0.22083688 -0.19262584 -0.0961377 -0.08408009
-0.037109636 -0.26888555 -0.11985969 -0.023491897 -0.22153766 -0.079333335 0.034069378 0.06263259
-0.09836997 -0.2296814 -0.28174427 -0.0743052 -0.21028715 0.14533071 -0.020202668 -0.036260318
-0.08124823 -0.21902457 -0.16452248 -0.24243367 -0.1376443 -0.018957632 0.020965464 -0.028000705
-0.03287047 -0.09484545 -0.013067904 -0.2036837 -0.14101014 0.048167795 -0.0312293 0.066171214
0.05677949 -0.19165389 -0.16353641 0.029849915 -0.32902375 -0.24383548 -0.24803585 -0.05340086
-0.046810605 -0.2836711 -0.10772677 0.063489206 -0.10781758 -0.10171177 -0.07637862 -0.06899025
0.061490346 -0.13863488 -0.007894352 -0.10017823 -0.018179826 -0.024510501 -0.041808076 -0.10199532
-0.047708817 0.1675556 -0.0076721725 0.11067426 0.15767023 0.1998859 0.06983022 -0.016713325
-0.031878434 -0.09952109 0.083853036 0.16288118 0.009019071 0.07790008 0.075908214 -0.037442032
-0.09028004 -0.09320946 -0.035174925 0.08052729 -0.16639632 -0.13687827 -0.17064534 -0.036218308
-0.1817113 -0.2358602 -0.0367393 0.04993694 -0.2688664 0.066081025 -0.041066926 -0.10860846
-0.2524398 -0.08959955 -0.03970108 -0.1996139 -0.17341797 -0.073222816 -0.04172101 -0.08545165
0.06755676 -0.071162626 -0.3727566 -0.10541558 0.0022444183 0.051365916 -0.1959566 0.056725476
0.09276262 0.03542288 0.11943112 0.10771451 -0.01343718 0.08024532 0.09128313 -0.007983674
-0.023652587 0.10706998 0.15979816 0.26117876 0.006137323 0.06795361 0.10477623 -0.065584116

fc1.bias f4 [10]
00000000: 1cc5 abb8 a917 94b7 386b 8735 fb14 4c39
00000010: 8a2c f2b9 3af1 8cb9 556b e1b9 126d 4839
00000020: b3ad edb9 db53 9339
-8.19063e-05 -1.7653992e-05 1.0089489e-06 0.00019462772 -0.0004619102 -0.0002688261 -0.00042995313 0.00019114118
-0.0004533358 0.00028100502

bn_fc1.weight f4 [10]
00000000: 6fb0 2240 7264 4b40 64f8 0140 c74a e03f
00000010: 3cdf 1440 8a24 1640 a2ce 3340 ec3d 1140
00000020: f88a 3540 3081 3f40
2.5420187 3.1780057 2.0307856 1.752282 2.3261251 2.3459802 2.8094869 2.2694044
2.836607 2.99226

bn_fc1.bias f4 [10]
00000000: 2da5 bbbd 3aeb 19bf 16cc 173f 0b0e 583f
00000010: 7f4e 163e c27e 213e b126 04bf 0333 863e
00000020: e5d8 e7be 4fca a9be
-0.09162364 -0.6012455 0.59295785 0.8439643 0.14678381 0.1577101 -0.5162154 0.26210794
-0.45282665 -0.33162162

bn_fc1.running_mean f4 [10]
00000000: b948 663f e8a5 ab3f bc3a 5c3f f134 403d
00000010: 6eb4 2ac0 ec8a b13d ba00 08c0 2a79 e43f
00000020: 0f9a 01c0 9373 b83e
0.89954716 1.3410006 0.8602712 0.04692549 -2.6672626 0.08669075 -2.1250443 1.7849476
-2.025028 0.36025676

bn_fc1.running_var f4 [10]
00000000: 4d8d 5640 4035 a840 4ae9 3c40 6662 5540
00000010: 18cd 3140 3e51 6340 388d 6740 2ff7 1e40
00000020: 082a 6840 f8f9 9440
3.3523743 5.2565002 2.9517388 3.3341308 2.778143 3.5518336 3.6179943 2.483837
3.6275654 4.655514
